{\rtf1\ansi\ansicpg1252\cocoartf2513
\cocoatextscaling0\cocoaplatform0{\fonttbl\f0\fswiss\fcharset0 Helvetica;}
{\colortbl;\red255\green255\blue255;}
{\*\expandedcolortbl;;}
\margl1440\margr1440\vieww10800\viewh8400\viewkind0
\pard\tx720\tx1440\tx2160\tx2880\tx3600\tx4320\tx5040\tx5760\tx6480\tx7200\tx7920\tx8640\pardirnatural\partightenfactor0

\f0\fs24 \cf0 ReversibleGraphNet(\
  (module_list): ModuleList(\
    (0): None\
    (1): GLOWCouplingBlock(\
      (s1): Sequential(\
        (0): Linear(in_features=4, out_features=256, bias=True)\
        (1): ReLU()\
        (2): Linear(in_features=256, out_features=8, bias=True)\
      )\
      (s2): Sequential(\
        (0): Linear(in_features=5, out_features=256, bias=True)\
        (1): ReLU()\
        (2): Linear(in_features=256, out_features=6, bias=True)\
      )\
    )\
    (2): PermuteRandom()\
    (3): GLOWCouplingBlock(\
      (s1): Sequential(\
        (0): Linear(in_features=4, out_features=256, bias=True)\
        (1): ReLU()\
        (2): Linear(in_features=256, out_features=8, bias=True)\
      )\
      (s2): Sequential(\
        (0): Linear(in_features=5, out_features=256, bias=True)\
        (1): ReLU()\
        (2): Linear(in_features=256, out_features=6, bias=True)\
      )\
    )\
    (4): PermuteRandom()\
    (5): GLOWCouplingBlock(\
      (s1): Sequential(\
        (0): Linear(in_features=4, out_features=256, bias=True)\
        (1): ReLU()\
        (2): Linear(in_features=256, out_features=8, bias=True)\
      )\
      (s2): Sequential(\
        (0): Linear(in_features=5, out_features=256, bias=True)\
        (1): ReLU()\
        (2): Linear(in_features=256, out_features=6, bias=True)\
      )\
    )\
    (6): PermuteRandom()\
    (7): GLOWCouplingBlock(\
      (s1): Sequential(\
        (0): Linear(in_features=4, out_features=256, bias=True)\
        (1): ReLU()\
        (2): Linear(in_features=256, out_features=8, bias=True)\
      )\
      (s2): Sequential(\
        (0): Linear(in_features=5, out_features=256, bias=True)\
        (1): ReLU()\
        (2): Linear(in_features=256, out_features=6, bias=True)\
      )\
    )\
    (8): PermuteRandom()\
    (9): GLOWCouplingBlock(\
      (s1): Sequential(\
        (0): Linear(in_features=4, out_features=256, bias=True)\
        (1): ReLU()\
        (2): Linear(in_features=256, out_features=8, bias=True)\
      )\
      (s2): Sequential(\
        (0): Linear(in_features=5, out_features=256, bias=True)\
        (1): ReLU()\
        (2): Linear(in_features=256, out_features=6, bias=True)\
      )\
    )\
    (10): PermuteRandom()\
    (11): GLOWCouplingBlock(\
      (s1): Sequential(\
        (0): Linear(in_features=4, out_features=256, bias=True)\
        (1): ReLU()\
        (2): Linear(in_features=256, out_features=8, bias=True)\
      )\
      (s2): Sequential(\
        (0): Linear(in_features=5, out_features=256, bias=True)\
        (1): ReLU()\
        (2): Linear(in_features=256, out_features=6, bias=True)\
      )\
    )\
    (12): PermuteRandom()\
    (13): dummy()\
    (14): None\
  )\
)\
Starting training now\
Doing Testing evaluation on the model now\
This is Epoch 0, training loss 351491433.41176, testing loss 13410.71484\
Doing Testing evaluation on the model now\
This is Epoch 10, training loss 11.16148, testing loss 10.77427\
Doing Testing evaluation on the model now\
…
